…
39081017"},"user_tz":-540},"id":"_htCh0IeUzaM","outputId":"64536982-7998-486a-cab1-9cba7bd87eb2"},"outputs":[{"output_type":"stream","name":"stdout","text":["/content/darknet\n"," CUDA-version: 11010 (11020), cuDNN: 7.6.5, CUDNN_HALF=1, GPU count: 1  \n"," CUDNN_HALF=1 \n"," OpenCV version: 3.2.0\n","Demo\n"," 0 : compute_capability = 750, cudnn_half = 1, GPU: Tesla T4 \n","net.optimized_memory = 0 \n","mini_batch = 1, batch = 646, time_steps = 1, train = 0 \n","   layer   filters  size/strd(dil)      input                output\n","   0 Create CUDA-stream - 0 \n"," Create cudnn-handle 0 \n","conv     32       3 x 3/ 1    608 x 608 x   3 ->  608 x 608 x  32 0.639 BF\n","   1 conv     64       3 x 3/ 2    608 x 608 x  32 ->  304 x 304 x  64 3.407 BF\n","   2 conv     32       1 x 1/ 1    304 x 304 x  64 ->  304 x 304 x  32 0.379 BF\n","   3 conv     64       3 x 3/ 1    304 x 304 x  32 ->  304 x 304 x  64 3.407 BF\n","   4 Shortcut Layer: 1,  wt = 0, wn = 0, outputs: 304 x 304 x  64 0.006 BF\n","   5 conv    128       3 x 3/ 2    304 x 304 x  64 ->  152 x 152 x 128 3.407 BF\n","   6 conv     64       1 x 1/ 1    152 x 152 x 128 ->  152 x 152 x  64 0.379 BF\n","   7 conv    128       3 x 3/ 1    152 x 152 x  64 ->  152 x 152 x 128 3.407 BF\n","   8 Shortcut Layer: 5,  wt = 0, wn = 0, outputs: 152 x 152 x 128 0.003 BF\n","   9 conv     64       1 x 1/ 1    152 x 152 x 128 ->  152 x 152 x  64 0.379 BF\n","  10 conv    128       3 x 3/ 1    152 x 152 x  64 ->  152 x 152 x 128 3.407 BF\n","  11 Shortcut Layer: 8,  wt = 0, wn = 0, outputs: 152 x 152 x 128 0.003 BF\n","  12 conv    256       3 x 3/ 2    152 x 152 x 128 ->   76 x  76 x 256 3.407 BF\n","  13 conv    128       1 x 1/ 1     76 x  76 x 256 ->   76 x  76 x 128 0.379 BF\n","  14 conv    256       3 x 3/ 1     76 x  76 x 128 ->   76 x  76 x 256 3.407 BF\n","  15 Shortcut Layer: 12,  wt = 0, wn = 0, outputs:  76 x  76 x 256 0.001 BF\n","  16 conv    128       1 x 1/ 1     76 x  76 x 256 ->   76 x  76 x 128 0.379 BF\n","  17 conv    256       3 x 3/ 1     76 x  76 x 128 ->   76 x  76 x 256 3.407 BF\n","  18 Shortcut Layer: 15,  wt = 0, wn = 0, outputs:  76 x  76 x 256 0.001 BF\n","  19 conv    128       1 x 1/ 1     76 x  76 x 256 ->   76 x  76 x 128 0.379 BF\n","  20 conv    256       3 x 3/ 1     76 x  76 x 128 ->   76 x  76 x 256 3.407 BF\n","  21 Shortcut Layer: 18,  wt = 0, wn = 0, outputs:  76 x  76 x 256 0.001 BF\n","  22 conv    128       1 x 1/ 1     76 x  76 x 256 ->   76 x  76 x 128 0.379 BF\n","  23 conv    256       3 x 3/ 1     76 x  76 x 128 ->   76 x  76 x 256 3.407 BF\n","  24 Shortcut Layer: 21,  wt = 0, wn = 0, outputs:  76 x  76 x 256 0.001 BF\n","  25 conv    128       1 x 1/ 1     76 x  76 x 256 ->   76 x  76 x 128 0.379 BF\n","  26 conv    256       3 x 3/ 1     76 x  76 x 128 ->   76 x  76 x 256 3.407 BF\n","  27 Shortcut Layer: 24,  wt = 0, wn = 0, outputs:  76 x  76 x 256 0.001 BF\n","  28 conv    128       1 x 1/ 1     76 x  76 x 256 ->   76 x  76 x 128 0.379 BF\n","  29 conv    256       3 x 3/ 1     76 x  76 x 128 ->   76 x  76 x 256 3.407 BF\n","  30 Shortcut Layer: 27,  wt = 0, wn = 0, outputs:  76 x  76 x 256 0.001 BF\n","  31 conv    128       1 x 1/ 1     76 x  76 x 256 ->   76 x  76 x 128 0.379 BF\n","  32 conv    256       3 x 3/ 1     76 x  76 x 128 ->   76 x  76 x 256 3.407 BF\n","  33 Shortcut Layer: 30,  wt = 0, wn = 0, outputs:  76 x  76 x 256 0.001 BF\n","  34 conv    128       1 x 1/ 1     76 x  76 x 256 ->   76 x  76 x 128 0.379 BF\n","  35 conv    256       3 x 3/ 1     76 x  76 x 128 ->   76 x  76 x 256 3.407 BF\n","  36 Shortcut Layer: 33,  wt = 0, wn = 0, outputs:  76 x  76 x 256 0.001 BF\n","  37 conv    512       3 x 3/ 2     76 x  76 x 256 ->   38 x  38 x 512 3.407 BF\n","  38 conv    256       1 x 1/ 1     38 x  38 x 512 ->   38 x  38 x 256 0.379 BF\n","  39 conv    512       3 x 3/ 1     38 x  38 x 256 ->   38 x  38 x 512 3.407 BF\n","  40 Shortcut Layer: 37,  wt = 0, wn = 0, outputs:  38 x  38 x 512 0.001 BF\n","  41 conv    256       1 x 1/ 1     38 x  38 x 512 ->   38 x  38 x 256 0.379 BF\n","  42 conv    512       3 x 3/ 1     38 x  38 x 256 ->   38 x  38 x 512 3.407 BF\n","  43 Shortcut Layer: 40,  wt = 0, wn = 0, outputs:  38 x  38 x 512 0.001 BF\n","  44 conv    256       1 x 1/ 1     38 x  38 x 512 ->   38 x  38 x 256 0.379 BF\n","  45 conv    512       3 x 3/ 1     38 x  38 x 256 ->   38 x  38 x 512 3.407 BF\n","  46 Shortcut Layer: 43,  wt = 0, wn = 0, outputs:  38 x  38 x 512 0.001 BF\n","  47 conv    256       1 x 1/ 1     38 x  38 x 512 ->   38 x  38 x 256 0.379 BF\n","  48 conv    512       3 x 3/ 1     38 x  38 x 256 ->   38 x  38 x 512 3.407 BF\n","  49 Shortcut Layer: 46,  wt = 0, wn = 0, outputs:  38 x  38 x 512 0.001 BF\n","  50 conv    256       1 x 1/ 1     38 x  38 x 512 ->   38 x  38 x 256 0.379 BF\n","  51 conv    512       3 x 3/ 1     38 x  38 x 256 ->   38 x  38 x 512 3.407 BF\n","  52 Shortcut Layer: 49,  wt = 0, wn = 0, outputs:  38 x  38 x 512 0.001 BF\n","  53 conv    256       1 x 1/ 1     38 x  38 x 512 ->   38 x  38 x 256 0.379 BF\n","  54 conv    512       3 x 3/ 1     38 x  38 x 256 ->   38 x  38 x 512 3.407 BF\n","  55 Shortcut Layer: 52,  wt = 0, wn = 0, outputs:  38 x  38 x 512 0.001 BF\n","  56 conv    256       1 x 1/ 1     38 x  38 x 512 ->   38 x  38 x 256 0.379 BF\n","  57 conv    512       3 x 3/ 1     38 x  38 x 256 ->   38 x  38 x 512 3.407 BF\n","  58 Shortcut Layer: 55,  wt = 0, wn = 0, outputs:  38 x  38 x 512 0.001 BF\n","  59 conv    256       1 x 1/ 1     38 x  38 x 512 ->   38 x  38 x 256 0.379 BF\n","  60 conv    512       3 x 3/ 1     38 x  38 x 256 ->   38 x  38 x 512 3.407 BF\n","  61 Shortcut Layer: 58,  wt = 0, wn = 0, outputs:  38 x  38 x 512 0.001 BF\n","  62 conv   1024       3 x 3/ 2     38 x  38 x 512 ->   19 x  19 x1024 3.407 BF\n","  63 conv    512       1 x 1/ 1     19 x  19 x1024 ->   19 x  19 x 512 0.379 BF\n","  64 conv   1024       3 x 3/ 1     19 x  19 x 512 ->   19 x  19 x1024 3.407 BF\n","  65 Shortcut Layer: 62,  wt = 0, wn = 0, outputs:  19 x  19 x1024 0.000 BF\n","  66 conv    512       1 x 1/ 1     19 x  19 x1024 ->   19 x  19 x 512 0.379 BF\n","  67 conv   1024       3 x 3/ 1     19 x  19 x 512 ->   19 x  19 x1024 3.407 BF\n","  68 Shortcut Layer: 65,  wt = 0, wn = 0, outputs:  19 x  19 x1024 0.000 BF\n","  69 conv    512       1 x 1/ 1     19 x  19 x1024 ->   19 x  19 x 512 0.379 BF\n","  70 conv   1024       3 x 3/ 1     19 x  19 x 512 ->   19 x  19 x1024 3.407 BF\n","  71 Shortcut Layer: 68,  wt = 0, wn = 0, outputs:  19 x  19 x1024 0.000 BF\n","  72 conv    512       1 x 1/ 1     19 x  19 x1024 ->   19 x  19 x 512 0.379 BF\n","  73 conv   1024       3 x 3/ 1     19 x  19 x 512 ->   19 x  19 x1024 3.407 BF\n","  74 Shortcut Layer: 71,  wt = 0, wn = 0, outputs:  19 x  19 x1024 0.000 BF\n","  75 conv    512       1 x 1/ 1     19 x  19 x1024 ->   19 x  19 x 512 0.379 BF\n","  76 conv   1024       3 x 3/ 1     19 x  19 x 512 ->   19 x  19 x1024 3.407 BF\n","  77 conv    512       1 x 1/ 1     19 x  19 x1024 ->   19 x  19 x 512 0.379 BF\n","  78 conv   1024       3 x 3/ 1     19 x  19 x 512 ->   19 x  19 x1024 3.407 BF\n","  79 conv    512       1 x 1/ 1     19 x  19 x1024 ->   19 x  19 x 512 0.379 BF\n","  80 conv   1024       3 x 3/ 1     19 x  19 x 512 ->   19 x  19 x1024 3.407 BF\n","  81 conv     24       1 x 1/ 1     19 x  19 x1024 ->   19 x  19 x  24 0.018 BF\n","  82 yolo\n","[yolo] params: iou loss: mse (2), iou_norm: 0.75, obj_norm: 1.00, cls_norm: 1.00, delta_norm: 1.00, scale_x_y: 1.00\n","  83 route  79 \t\t                           ->   19 x  19 x 512 \n","  84 conv    256       1 x 1/ 1     19 x  19 x 512 ->   19 x  19 x 256 0.095 BF\n","  85 upsample                 2x    19 x  19 x 256 ->   38 x  38 x 256\n","  86 route  85 61 \t                           ->   38 x  38 x 768 \n","  87 conv    256       1 x 1/ 1     38 x  38 x 768 ->   38 x  38 x 256 0.568 BF\n","  88 conv    512       3 x 3/ 1     38 x  38 x 256 ->   38 x  38 x 512 3.407 BF\n","  89 conv    256       1 x 1/ 1     38 x  38 x 512 ->   38 x  38 x 256 0.379 BF\n","  90 conv    512       3 x 3/ 1     38 x  38 x 256 ->   38 x  38 x 512 3.407 BF\n","  91 conv    256       1 x 1/ 1     38 x  38 x 512 ->   38 x  38 x 256 0.379 BF\n","  92 conv    512       3 x 3/ 1     38 x  38 x 256 ->   38 x  38 x 512 3.407 BF\n","  93 conv     24       1 x 1/ 1     38 x  38 x 512 ->   38 x  38 x  24 0.035 BF\n","  94 yolo\n","[yolo] params: iou loss: mse (2), iou_norm: 0.75, obj_norm: 1.00, cls_norm: 1.00, delta_norm: 1.00, scale_x_y: 1.00\n","  95 route  91 \t\t                           ->   38 x  38 x 256 \n","  96 conv    128       1 x 1/ 1     38 x  38 x 256 ->   38 x  38 x 128 0.095 BF\n","  97 upsample                 2x    38 x  38 x 128 ->   76 x  76 x 128\n","  98 route  97 36 36 \t                           ->   76 x  76 x 640 \n","  99 conv    128       1 x 1/ 1     76 x  76 x 640 ->   76 x  76 x 128 0.946 BF\n"," 100 conv    256       3 x 3/ 1     76 x  76 x 128 ->   76 x  76 x 256 3.407 BF\n"," 101 conv    128       1 x 1/ 1     76 x  76 x 256 ->   76 x  76 x 128 0.379 BF\n"," 102 conv    256       3 x 3/ 1     76 x  76 x 128 ->   76 x  76 x 256 3.407 BF\n"," 103 conv    128       1 x 1/ 1     76 x  76 x 256 ->   76 x  76 x 128 0.379 BF\n"," 104 conv    256       3 x 3/ 1     76 x  76 x 128 ->   76 x  76 x 256 3.407 BF\n"," 105 conv     24       1 x 1/ 1     76 x  76 x 256 ->   76 x  76 x  24 0.071 BF\n"," 106 yolo\n","[yolo] params: iou loss: mse (2), iou_norm: 0.75, obj_norm: 1.00, cls_norm: 1.00, delta_norm: 1.00, scale_x_y: 1.00\n","Total BFLOPS 139.906 \n","avg_outputs = 1118438 \n"," Allocate additional workspace_size = 52.43 MB \n","Loading weights from backup/yolov3_best.weights...\n"," seen 64, trained: 373 K-images (5 Kilo-batches_64) \
…
